morphydex/morphydex/model.tflite (tflite, 741564 bytes, 16 tensors)

sequential_2/conv2d/Relu;sequential_2/conv2d/BiasAdd;sequential_2/conv2d/Conv2D;sequential_2/conv2d/BiasAdd/ReadVariableOp f4 [32, 3, 3, 3]
0	0x39da239d	0.00041606734
1	0xb9184e7a	-0.00014525084
2	0xb8c9ffeb	-9.632095e-05
3	0x386725d2	5.5109915e-05
4	0xb9f6ad17	-0.00047049738
5	0xb9b6704a	-0.00034797407
6	0xba0bc92b	-0.00053324056
7	0xb8ada20f	-8.2794686e-05
8	0xb9f5d9cf	-0.00046892322
9	0x385930ea	5.1782386e-05
10	0xb9a642a9	-0.00031711653
11	0xb94dd991	-0.00019631373
12	0x3995234a	0.00028445787
13	0x38cd09d8	9.776995e-05
14	0xb8802e96	-6.112193e-05
15	0x39dab54d	0.0004171528
16	0x394eea1b	0.00019732902
17	0xb9b36fe7	-0.00034224914
18	0x39def1b0	0.0004252321
19	0x3a0559f7	0.0005086953
20	0x3a04b63b	0.0005062555
21	0xb9a57bb8	-0.0003156343
22	0xb9f56ac1	-0.0004680958
23	0x3a171738	0.0005763653
24	0xb9a582a5	-0.0003156859
25	0x3a04def9	0.0005068626
26	0xb99cae53	-0.0002988452
27	0x398d14cb	0.00026909108
28	0x39856e61	0.00025449976
29	0xb9165558	-0.00014336908
30	0x392e7ebc	0.00016641145
31	0xb9ac274a	-0.0003283567
32	0x39996e5c	0.00029264658
33	0x38f17b7e	0.00011514778
34	0x397fab9e	0.00024382627
35	0xb9919fca	-0.00027775607
36	0x39d7e13a	0.00041175802
37	0xb9365761	-0.00017389424
38	0xb88f9a54	-6.847517e-05
39	0x38f35273	0.000116025
40	0xb77dd42c	-1.5129375e-05
41	0x392ea1a4	0.00016654149
42	0xb824983c	-3.9242426e-05
43	0xb8ddcdfc	-0.00010576469
44	0xb906c80d	-0.0001285376
45	0xb9e3d164	-0.00043452822
46	0x3a08a1a5	0.0005212075
47	0x3a010574	0.0004921772
48	0xb7804102	-1.528906e-05
49	0xb9224396	-0.00015474702
50	0x3836e63f	4.3606615e-05
51	0xb802d16c	-3.1189455e-05
52	0x39d1f2a1	0.0004004436
53	0x3992e226	0.00028015784
54	0xb986bae3	-0.00025697713
55	0x3a10e606	0.000552744
56	0x3982ce7f	0.00024949384
57	0x39f286d0	0.0004625828
58	0xb9a32de9	-0.00031123988
59	0x39327070	0.00017017289
60	0x39f9e5c2	0.00047664164
61	0xb9e57881	-0.00043768066
62	0x38445b90	4.6815316e-05
63	0xb980e79f	-0.00024586634
64	0x39d6b8c6	0.00040954928
65	0xb9fcb4a0	-0.00048199762
66	0xb9ed82ea	-0.000453017
67	0xb99bd932	-0.00029725727
68	0x399688a2	0.0002871203
69	0xb93d135a	-0.00018031654
70	0xb934369b	-0.0001718648
71	0xb98d32c9	-0.00026931454
72	0x39fd089d	0.00048262338
73	0xb9daa5f9	-0.0004170386
74	0xb92f78c0	-0.00016734283
75	0xb9b3d6d7	-0.0003430161
76	0x377b2e71	1.4971579e-05
77	0xb94b772f	-0.00019403988
78	0x39a8fce0	0.00032231864
79	0xb8e88d97	-0.00011088995
80	0x39d7bd16	0.00041148876
81	0x3a094074	0.00052357395
82	0x38c037dd	9.165679e-05
83	0x39e76241	0.00044132958
84	0xb9894bef	-0.0002618725
85	0x3a04387b	0.00050438166
86	0xb9754601	-0.00023391099
87	0xba0fd953	-0.0005487401
88	0x39001c44	0.00012217561
89	0x39ea75cb	0.0004471972
90	0xb95fdec5	-0.00021349925
91	0x395bebd4	0.0002097332
92	0xb9ecda4f	-0.0004517608
93	0x39de9e78	0.00042461208
94	0xb9d42822	-0.00040465692
95	0xb984e9c3	-0.00025351168
96	0xba0f9f54	-0.0005478759
97	0xb8b281a5	-8.5118496e-05
98	0x3965c371	0.0002191195
99	0x39eff4c6	0.00045768003
100	0x39c874a6	0.00038233883
101	0xb8aac703	-8.1433005e-05
102	0xba18a209	-0.0005822485
103	0xba03fdb2	-0.0005035057
104	0x388c5db4	6.693174e-05
105	0x39fe1ca6	0.00048468
106	0xb8f49c64	-0.00011663957
107	0xb9df52a5	-0.0004259545
108	0xb96ca87b	-0.00022569478
109	0x38cefcbf	9.869923e-05
110	0x3983ddd9	0.00025151556
111	0x39c98abb	0.0003844107
112	0x3902ea93	0.00012485152
113	0x39db84df	0.00041869932
114	0xb9b8482f	-0.00035148996
115	0xb8ffaec1	-0.00012191898
116	0xb9e15e70	-0.00042985706
117	0x37e60db2	2.7424514e-05
118	0x39d01542	0.0003968869
119	0xb94bfd4f	-0.00019453953
120	0xb96c3416	-0.00022526117
121	0xb8cdab5e	-9.8070814e-05
122	0x3a01d31b	0.00049524166
123	0x39a0c956	0.00030667585
124	0x3906ae8e	0.00012844263
125	0x399bbd6b	0.0002970503
126	0xb9c23bbd	-0.00037047072
127	0x378764ea	1.6140246e-05
128	0x39f49140	0.00046647526
129	0xb9f8e796	-0.0004747479
130	0x3950a9e4	0.00019899715
131	0xb9c1c887	-0.00036961233
132	0xb8c9cd75	-9.622696e-05
133	0xb7e1fc22	-2.6939499e-05
134	0xb9e188a6	-0.00043017155
135	0xb94956f9	-0.00019201254
136	0x37930495	1.75259e-05
137	0x3977aa52	0.00023619205
138	0xb997825e	-0.00028898095
139	0xb9f39ee3	-0.00046466952
140	0x39c57b07	0.0003766643
141	0xb7561c1b	-1.2761938e-05
142	0xb9b3febc	-0.00034331332
143	0x38a51f7b	7.873677e-05
144	0x380464da	3.1565178e-05
145	0xba2dc807	-0.00066292327
146	0xb9b38c05	-0.00034245863
147	0xba05382c	-0.00050819176
148	0xb9df58db	-0.00042600077
149	0xb9c21903	-0.000370212
150	0x3901273f	0.00012317019
151	0xb9dc09f3	-0.00041969083
152	0x39b8983a	0.00035208632
153	0x39496563	0.00019206623
154	0xba17d98f	-0.00057926116
155	0xb8f7bd1d	-0.00011813103
156	0xb91dde8f	-0.00015055596
157	0xba04d5ef	-0.0005067279
158	0x391d9b88	0.00015030627
159	0xb9e0408b	-0.00042772698
160	0x38a0efa4	7.674031e-05
161	0xb9d2e5e9	-0.00040225618
162	0x39e2dd97	0.00043271176
163	0xb92307ca	-0.00015547793
164	0x39a77b99	0.0003194481
165	0xb9fba574	-0.00047997723
166	0xb9804445	-0.00024464927
167	0xb99629c9	-0.00028641362
168	0x39f821a1	0.00047327302
169	0xb94b7802	-0.00019404295
170	0x3984ce3c	0.00025330659
171	0x399e8ba0	0.00030240137
172	0x38c23306	9.260145e-05
173	0xb9de8bab	-0.000424472
174	0x39da6962	0.00041658717
175	0x399f0caf	0.00030336293
176	0x390ff393	0.00013728281
177	0xb99481c7	-0.0002832545
178	0x3a08550b	0.00052006607
179	0x3a0dc966	0.0005408734
180	0x387862f1	5.9219954e-05
181	0xba00b3e3	-0.0004909618
182	0xb98d2017	-0.00026917525
183	0xb8f32238	-0.00011593517
184	0x39231970	0.00015554368
185	0xb932609e	-0.00017011396
186	0x399ecb0c	0.0003028739
187	0x38a46ba9	7.840183e-05
188	0x3982cd52	0.00024948508
189	0x389a85b7	7.3681986e-05
190	0x39fe0dac	0.00048456842
191	0x3a0317f6	0.0005000824
192	0xb716f164	-8.9969e-06
193	0xb9b5dd81	-0.00034688044
194	0x3952d35f	0.00020105903
195	0x39de004f	0.0004234337
196	0x39dae821	0.0004175315
197	0xb9c79404	-0.00038066518
198	0xb9f4ab36	-0.0004666687
199	0x39a6bcb9	0.00031802597
200	0xba070016	-0.0005149854
201	0x38f1655a	0.00011510654
202	0xb988204e	-0.0002596401
203	0x396273f1	0.00021596231
204	0xb992a14e	-0.0002796747
205	0x38bf3e52	9.119198e-05
206	0xb96c7cc6	-0.00022553196
207	0xb88f2e20	-6.827363e-05
208	0x39cdab0d	0.0003922809
209	0x391e79dc	0.0001511345
210	0x3895d397	7.144285e-05
211	0x39b566ad	0.0003459951
212	0x39a07993	0.00030608158
213	0xb8ce2ee5	-9.83158e-05
214	0xb9686665	-0.00022163389
215	0xb95f601a	-0.00021302738
216	0x39313395	0.00016899251
217	0x3983b8fd	0.00025124094
218	0x39a0e214	0.0003068602
219	0xb9bf7880	-0.00036520138
220	0xb918190b	-0.00014505179
221	0xb6ff6d68	-7.612329e-06
222	0x393bb540	0.0001790123
223	0x391bc8bc	0.00014856731
224	0xb963c8a6	-0.00021723154
225	0x39db15bb	0.00041787126
226	0xb982591c	-0.00024861924
227	0x39ce3699	0.0003933206
228	0x37ca3f5f	2.4109786e-05
229	0x39f14fd2	0.00046026573
230	0xb9e08318	-0.00042822282
231	0x39c23a9c	0.0003704623
232	0x399651a0	0.00028671045
233	0x3962569d	0.00021585306
234	0x39ae2380	0.00033214316
235	0xb97b8f65	-0.00023990644
236	0xb9543f5a	-0.00020241496
237	0x39b70d6b	0.00034914477
238	0xb8d6a0b9	-0.00010234252
239	0xb9c1cb09	-0.00036963102
240	0xb9fd71cc	-0.00048340706
241	0x3998be53	0.00029133502
242	0x392d0571	0.00016500593
243	0xba0a31ab	-0.00052716833
244	0xb8a0b458	-7.662986e-05
245	0x38bd196e	9.016959e-05
246	0xb8fc82fa	-0.00012040693
247	0xb984a7d8	-0.00025302055
248	0xb748ee6f	-1.1976444e-05
249	0xb987c426	-0.00025895349
250	0x3964bb49	0.00021813544
251	0x3983dc73	0.00025150515
252	0x39333f15	0.0001709427
253	0x398d4f66	0.00026952772
254	0x38b1cd18	8.4782194e-05
255	0x36b31c0a	5.33788e-06

sequential_2/conv2d/BiasAdd/ReadVariableOp f4 [32]
0	0xbc795a92	-0.015219348
1	0xbd053750	-0.032523453
2	0x3d16de7e	0.03683328
3	0x3bcc2bce	0.006230808
4	0x3cb4018e	0.021973398
5	0x3d6b1e26	0.0574018
6	0xbcf4a4be	-0.029863711
7	0xbd4563c9	-0.048190866
8	0xbd10a75b	-0.035315853
9	0xbc16f49d	-0.009213594
10	0x3b18fba8	0.0023343358
11	0xbd36fef5	-0.04467674
12	0x3cbacafd	0.02280187
13	0xbcf5503e	-0.029945489
14	0xbd15f2d4	-0.036608532
15	0x3d0dfea2	0.034666665
16	0x3d220ce1	0.039563064
17	0x3cd41afa	0.02589177
18	0x3bc85121	0.006113187
19	0x3b422633	0.002962482
20	0x3c23e702	0.010003807
21	0xbbb868b8	-0.005627718
22	0x3d0658f2	0.03279967
23	0x3aaef37a	0.0013347708
24	0xbd17ac45	-0.037029523
25	0x3c1b0e7f	0.009463905
26	0x3c003c27	0.007826841
27	0x3d267727	0.040640976
28	0x3ceee7cc	0.029163264
29	0x3bd66888	0.006543223
30	0xbd20a8d1	-0.039223496
31	0xbc97e69c	-0.01854258

sequential_2/conv2d_1/BiasAdd/ReadVariableOp f4 [64]
0	0x3cd379f8	0.025814995
1	0xbc169608	-0.009191044
2	0xbbc63dd6	-0.006049852
3	0x3c259fc3	0.010108891
4	0x3c5e0959	0.013552033
5	0x3b4b99f7	0.0031067112
6	0x3c777e49	0.015105792
7	0x3d0a6012	0.033783026
8	0x3cc61add	0.024182731
9	0x3c322150	0.0108722
10	0xbd0d3752	-0.034476586
11	0x3c66ac14	0.014079113
12	0x3cc237e9	0.0237083
13	0x3b1e4ac9	0.0024153462
14	0x3c5ed881	0.013601423
15	0xbc9ad4a8	-0.01890023
16	0x3ad7b57e	0.0016457287
17	0x3c867eed	0.016417945
18	0xba8b44ac	-0.0010625324
19	0xbd1067aa	-0.03525511
20	0x3c2fa1e9	0.010719755
21	0xbbd6953f	-0.0065485532
22	0xbcf10b9a	-0.029424477
23	0xbd1ea6d0	-0.038733304
24	0x3c7cd4c3	0.015431586
25	0xbcc377e8	-0.023860887
26	0x3c4bea8a	0.012446055
27	0x3cd94c9a	0.026525784
28	0x3c0f1229	0.008732357
29	0x3c54a0a3	0.012977752
30	0x3c77895f	0.015108435
31	0x3cd72555	0.026262918
32	0xbd04e074	-0.032440618
33	0x38959d52	7.134177e-05
34	0x3cdea344	0.02717746
35	0xbca17e31	-0.019713493
36	0x3c84553c	0.016153924
37	0xbd326001	-0.043548588
38	0xbd0f85fc	-0.035039887
39	0xbc38bcd1	-0.011275486
40	0x3bca4e72	0.006173902
41	0x3c8c2f02	0.017112259
42	0xbc29312c	-0.010326665
43	0x3b0d83be	0.0021593417
44	0x3b982002	0.0046424875
45	0x3cd66365	0.026170442
46	0x3be97e57	0.0071256566
47	0x3cc532fa	0.02407216
48	0xba50cc71	-0.00079650345
49	0x3c623282	0.013805987
50	0x3cd596b6	0.026072841
51	0xbc3d3a4d	-0.0115495445
52	0x3ca29728	0.019847468
53	0xbcad952c	-0.021189295
54	0x3cb877ca	0.022518057
55	0x38d3b6e9	0.00010095334
56	0xbd198e31	-0.03748912
57	0xbcb1ec1f	-0.021719037
58	0xbcff1ecb	-0.031142613
59	0xbb0e6ae3	-0.002173119
60	0x3cb7d726	0.022441458
61	0xbd097af8	-0.033564538
62	0x3c61c022	0.013778718
63	0x3be9a406	0.007130149

sequential_2/conv2d_2/BiasAdd/ReadVariableOp f4 [64]
0	0xbc60ed7c	-0.013728496
1	0x3c7afc5b	0.015318955
2	0xbcafdf71	-0.02146885
3	0xbc0b2f2b	-0.008495132
4	0x3c8f96fe	0.017528053
5	0xbc0e643f	-0.008690893
6	0x3cb4a44c	0.022051
7	0x3cd64edf	0.026160656
8	0x3baa81bf	0.005203455
9	0x3c70c8db	0.014696325
10	0xbb6ee2aa	-0.003645102
11	0x3c4f02ab	0.012634913
12	0xbc10c82e	-0.008836789
13	0xbca2aa0e	-0.019856479
14	0xbcb274a7	-0.02178414
15	0x3c0c2bed	0.008555395
16	0x3bf7b69e	0.0075596115
17	0x3c8993a9	0.016794043
18	0xbc5a112b	-0.013309757
19	0xbc3ad27c	-0.011402722
20	0xbcb0eee5	-0.021598289
21	0xbc0be51e	-0.0085385125
22	0xbc4fda9a	-0.012686396
23	0xbc8e0501	-0.01733637
24	0x3ba7b0a2	0.005117492
25	0xbc6cdb74	-0.014456619
26	0xbcbf66bf	-0.023364423
27	0x3b98c41d	0.0046620504
28	0xbc26812d	-0.010162634
29	0x3be1fab2	0.0068963403
30	0xbc967d05	-0.01837016
31	0xbbdc58ce	-0.0067244535
32	0x3c6cd2b9	0.014454537
33	0xbca0b7ff	-0.019618986
34	0x3c920c4c	0.01782813
35	0xbc851391	-0.016244682
36	0x3c37de6e	0.011222465
37	0x3baf461e	0.005348935
38	0x3cc83531	0.024439426
39	0x3c75970e	0.0149896275
40	0x3c6a2005	0.014289861
41	0x3c0e498a	0.008684525
42	0x3c388dbb	0.01126426
43	0x3ca1cba0	0.019750416
44	0xbc3cdc7f	-0.01152718
45	0xbc878b63	-0.016545957
46	0xbcad1c07	-0.021131529
47	0x3c3bebb0	0.0114697665
48	0xbc628e3a	-0.013827855
49	0x3ba6fdf4	0.0050961915
50	0xbc6000ae	-0.013672037
51	0xbc9ddeb6	-0.019271236
52	0xbc4f9483	-0.012669685
53	0x3c8107ea	0.015750844
54	0x3c340b2e	0.010988994
55	0x3cd6be9e	0.02621394
56	0xbc9bebfa	-0.01903342
57	0xbc5298d7	-0.012853823
58	0x3c96aef0	0.018393964
59	0x3c59ccd8	0.013293467
60	0xbc012b83	-0.007883909
61	0xbbd9a964	-0.0066425074
62	0xbc2db5a1	-0.010602386
63	0xbc9e8658	-0.01935117

sequential_2/conv2d_3/BiasAdd/ReadVariableOp f4 [64]
0	0x3c5bca7c	0.013414975
1	0x3c84484c	0.016147755
2	0xbc0cf33b	-0.008602913
3	0xbbef8f79	-0.0073108044
4	0x3c48a87f	0.012247204
5	0xbc1fc442	-0.009751381
6	0x3bb249f8	0.0054409467
7	0x3c807e0c	0.015685104
8	0xbc3fc39c	-0.011704352
9	0xbc5c7286	-0.013455039
10	0xbbfa8d25	-0.0076462203
11	0xbbf38566	-0.007431674
12	0xbb4e6d8a	-0.0031498396
13	0xbc1a09fc	-0.0094017945
14	0xbb647dcc	-0.003486502
15	0xbbf845ea	-0.007576694
16	0xbc432407	-0.011910445
17	0xbca20e27	-0.019782139
18	0xbc0897e3	-0.008336994
19	0x3b8ce548	0.0042997934
20	0x3c44937e	0.0119980555
21	0xbbd72d95	-0.006566713
22	0xbbd143a7	-0.0063862386
23	0xbc388949	-0.0112632
24	0xbc37b6af	-0.011212989
25	0x3b5fe6c3	0.0034164644
26	0xbbd09a44	-0.006366046
27	0xbca49e6a	-0.020095069
28	0xbac176a1	-0.0014760086
29	0x3c3cf3e3	0.0115327565
30	0x3c0a0cbe	0.00842589
31	0xbc55daae	-0.013052626
32	0x3c80ec83	0.015737778
33	0xbc8eeb0f	-0.017446069
34	0xbc0893bd	-0.008336005
35	0xbc0e8982	-0.008699777
36	0x3c5e5848	0.013570853
37	0xbc08f5f7	-0.008359424
38	0xbc1b547b	-0.009480591
39	0xbc6e4ea7	-0.014545119
40	0x3bca5887	0.006175104
41	0xbc3b6c85	-0.011439447
42	0x3c3b84a1	0.011445195
43	0xbb9bd9f5	-0.004756207
44	0xbbf04264	-0.007332133
45	0x3c60be99	0.013717317
46	0xbc26051b	-0.010133053
47	0x3c6c2641	0.014413417
48	0xbbfd75dd	-0.0077349977
49	0x3c201d13	0.009772557
50	0xbc445806	-0.011983877
51	0xbbe82082	-0.0070839534
52	0xbc2efe74	-0.010680784
53	0xbc481c6a	-0.012213806
54	0xbbdd44f2	-0.0067526037
55	0x3caa149c	0.02076178
56	0x3c0a4709	0.008439788
57	0xbbfa3812	-0.0076360786
58	0xbc813332	-0.015771482
59	0x3ba75d40	0.005107552
60	0x3c63b22b	0.013897459
61	0x3c2940ab	0.010330359
62	0x3c6ea6a4	0.014566097
63	0xbc1cba74	-0.009565938

sequential_2/conv2d_4/BiasAdd/ReadVariableOp f4 [64]
0	0xbaf09a70	-0.0018356573
1	0xbc0c812a	-0.008575717
2	0xbc4c4c68	-0.012469389
3	0x3b39218b	0.0028248753
4	0x3b9f2959	0.004857224
5	0x3c9884f0	0.018618077
6	0x3a414149	0.0007372094
7	0xbc24e9b9	-0.010065489
8	0x3bc10530	0.005890511
9	0x3c916a0e	0.017750766
10	0xb909e475	-0.00013150445
11	0xbb875d99	-0.0041310308
12	0xbc4dafd1	-0.012554125
13	0xbb8d6854	-0.0043154154
14	0x3c4e8367	0.012604571
15	0x3c7d0164	0.015442226
16	0x3aeca6e1	0.0018055105
17	0xbc65b358	-0.01401981
18	0xba96563f	-0.0011469795
19	0xbc2a709a	-0.010402823
20	0xbb6c7356	-0.0036079488
21	0xb8a8fd52	-8.058049e-05
22	0x3b4f8c15	0.0031669189
23	0x3c2be594	0.010491747
24	0xbbdf622e	-0.006817124
25	0x3b4c5fe7	0.0031185092
26	0xbbf47a22	-0.0074608484
27	0x3b85f383	0.0040878667
28	0xbbd6ac58	-0.0065513067
29	0x3b85fb42	0.00408879
30	0xbc08f49c	-0.008359101
31	0x3c69243e	0.014229832
32	0xbb3c6986	-0.002874942
33	0xbb90bebe	-0.0044172695
34	0x3c30008d	0.010742319
35	0x3c5006ed	0.012696964
36	0xbc01b2f4	-0.007916201
37	0xbcf5d6a4	-0.030009575
38	0xbc210e65	-0.009830092
39	0xbc17255a	-0.009225214
40	0x3ca624b0	0.020281166
41	0x3aed5348	0.0018106485
42	0x3beb8be5	0.0071883076
43	0xbbc77361	-0.0060867523
44	0x3bd73f0d	0.0065687955
45	0x3c5174ca	0.012784192
46	0x3c62b96b	0.013838152
47	0x3b1be1cb	0.0023785706
48	0xbcdcd2f1	-0.026956053
49	0xba446453	-0.0007491756
50	0x3c471122	0.012150081
51	0x3bdb7728	0.006697554
52	0xb9ed4c0e	-0.00045260828
53	0x3bfd0dcc	0.007722592
54	0xbc98b43b	-0.018640628
55	0x3bb09e96	0.0053899987
56	0x3c3662b7	0.011131934
57	0xbc51ead2	-0.012812333
58	0xbc61dbe2	-0.013785334
59	0xbc1fc247	-0.009750909
60	0x3c039495	0.00803103
61	0xbc5678a9	-0.013090291
62	0x3c16151d	0.009160307
63	0x3c5ad447	0.013356275

sequential_2/conv2d_5/BiasAdd/ReadVariableOp f4 [64]
0	0x3c036723	0.008020195
1	0xbbe9aeeb	-0.0071314475
2	0xbbc1ad50	-0.005910553
3	0xbc23dedc	-0.010001864
4	0x3c8978e9	0.016781287
5	0xbbfdc297	-0.007744144
6	0xbbe319ec	-0.0069305804
7	0xbb68260c	-0.0035423068
8	0xbbea6f95	-0.007154415
9	0xbbe5f6d0	-0.0070179477
10	0x3c37de81	0.011222483
11	0xbc4433e1	-0.0119752595
12	0x3b8b6dc4	0.0042550284
13	0xbc02df1a	-0.007987762
14	0x3c090c96	0.008364817
15	0xbc1da5b8	-0.00962203
16	0xba236ac6	-0.0006233867
17	0x3af6e23b	0.0018835732
18	0xbc2e980a	-0.010656366
19	0xbb9cc24a	-0.0047839032
20	0xbcac2a62	-0.021016303
21	0xbc0afcf9	-0.008483165
22	0xbc0d8f98	-0.008640192
23	0x3ba655ca	0.005076145
24	0xbc70017c	-0.014648791
25	0x3bedf317	0.0072616446
26	0xbbd4c18b	-0.0064927987
27	0xbc7843bf	-0.015152871
28	0xbc068400	-0.008210182
29	0x3c546750	0.012964085
30	0xbc5b09aa	-0.013369003
31	0x3c5143eb	0.012772541
32	0xbb5d09ac	-0.0033727689
33	0x3c8fd3a0	0.017556965
34	0x3c90e1e1	0.017685832
35	0xbc4e386b	-0.012586693
36	0x3c845e90	0.016158372
37	0x3c70388b	0.014661918
38	0x3a504f23	0.00079463626
39	0xbc28aa56	-0.0102945175
40	0xbaf0b6b1	-0.0018364993
41	0xbbdce8ca	-0.006741618
42	0xbc9270c9	-0.017876046
43	0x3c103413	0.008801478
44	0xbbcdf7c9	-0.006285642
45	0xbc2b00c5	-0.010437195
46	0x3c4112a8	0.011784233
47	0x3c26535c	0.01015171
48	0x3c328b4c	0.010897469
49	0xbb1d99f4	-0.0024048062
50	0x3b60cac7	0.0034300552
51	0xbc3f0477	-0.011658779
52	0xbc7ca480	-0.015420079
53	0x3b801b29	0.0039094877
54	0xbbd92753	-0.0066270023
55	0x3aee001e	0.0018157994
56	0xbb0b7784	-0.0021280954
57	0xbbc9ed39	-0.0061623123
58	0x3cd9c2f0	0.026582211
59	0x3c192daa	0.009349266
60	0x3a311dba	0.0006756444
61	0x3bf3c51c	0.0074392688
62	0xbc768157	-0.015045485
63	0xbc1af3e4	-0.009457562

sequential_2/conv2d_1/Conv2D f4 [64, 3, 3, 32]
0	0xbddb94fc	-0.10721776
1	0x3d4b03fa	0.04956434
2	0x3db29b35	0.0872101
3	0x3caae733	0.020862198
4	0x3d27bbfe	0.040950768
5	0xbd949224	-0.072544366
6	0xbcf55f1b	-0.029952576
7	0xbcffe097	-0.031235022
8	0xbd94274b	-0.07234057
9	0x3c569832	0.01309781
10	0xbdcf21cc	-0.10113868
11	0x3d3d9ca1	0.04629195
12	0x3daf1894	0.0854961
13	0xbc21a6fe	-0.009866474
14	0xbc35b6f5	-0.011090984
15	0x3911da57	0.00013909616
16	0x3d727c4f	0.05920058
17	0x3d8218b3	0.06352367
18	0x3d4b9e6d	0.049711633
19	0x3c480ea4	0.012210522
20	0x3d2d0c47	0.042248037
21	0xbc20f2c0	-0.009823501
22	0xbcabd6fd	-0.020976538
23	0x3c9645b9	0.018343793
24	0x3abf68a5	0.001460333
25	0x3d1733ae	0.03691452
26	0xbcfd2878	-0.030903086
27	0xbd3563c4	-0.044284597
28	0x3d1e8bde	0.038707606
29	0xbaf7e274	-0.0018912093
30	0xbdaecbae	-0.085349426
31	0x3d0ee6c9	0.034888063
32	0xbe170d78	-0.14751232
33	0xbc93e6eb	-0.018054446
34	0x3d28f640	0.041250467
35	0x3d8b69cf	0.06807291
36	0xbc557263	-0.01302776
37	0xbd2b53d7	-0.041828003
38	0xbcdb55c0	-0.026774287
39	0xbd99bb3f	-0.075064175
40	0xbdb4f909	-0.08836562
41	0x3da4dbc8	0.080497324
42	0x3cfecec0	0.031104445
43	0x3c84f532	0.0162302
44	0x3dc5bba4	0.0965493
45	0xbde381e4	-0.11108759
46	0xbd14b748	-0.036307603
47	0x3daf776a	0.08567698
48	0x3d57d1ca	0.052690305
49	0x3db06740	0.086134434
50	0xbc7fc083	-0.015609863
51	0x3d0036a6	0.031302117
52	0xbd1a36f5	-0.037650067
53	0xbdad3646	-0.084576175
54	0x3d45dd71	0.048306886
55	0x3d66b669	0.056326304
56	0xbd36ca21	-0.04462636
57	0xbdb58651	-0.088635094
58	0xbda13482	-0.07871343
59	0xbd39ec4f	-0.045391377
60	0x3d143fdb	0.03619371
61	0x3d48ec47	0.049053457
62	0xbd2ac8ef	-0.04169553
63	0xbd88d0c0	-0.06680441
64	0xbdb9ed85	-0.090785064
65	0xbbad1b3d	-0.005282788
66	0xbaba2d28	-0.0014204131
67	0x3d0ec5ed	0.034856725
68	0x3db8e505	0.09028057
69	0xbe34eb82	-0.17667964
70	0x3d34d8e6	0.044152163
71	0xbd591292	-0.052996226
72	0xbb4053bb	-0.0029346782
73	0x3d20e129	0.03927723
74	0xbd9f2a68	-0.0777176
75	0xbd01fec1	-0.031737093
76	0x3d6e1aa7	0.058130886
77	0xbda3c68b	-0.079968534
78	0x3d26592d	0.04061239
79	0x3d4a9132	0.049454875
80	0x3d2085e0	0.039190173
81	0x3d00391b	0.03130446
82	0x3d79646d	0.06088679
83	0xbdb07bc6	-0.08617358
84	0x3d7de69c	0.061987504
85	0x3d98fa5f	0.074696295
86	0xbcc90ba9	-0.024541693
87	0xbcc998b2	-0.024608944
88	0xbc3b2995	-0.011423488
89	0xbb692f2a	-0.003558109
90	0x3d5cd7ac	0.05391662
91	0x3d06b6ec	0.03288929
92	0xbd5bb675	-0.0536408
93	0x3d1a7a38	0.037714213
94	0x3d075c87	0.033047225
95	0xbc8142f9	-0.015779005
96	0xbce0561a	-0.027384806
97	0x3d1166fe	0.03549861
98	0x3d2527a2	0.040321
99	0xbb818886	-0.0039530424
100	0xbc4b8075	-0.012420763
101	0xbca0ab8d	-0.019613052
102	0xbd9b8325	-0.07593373
103	0xbd8d8b6f	-0.069113605
104	0xbd7981f2	-0.06091494
105	0x3dc2d476	0.0951318
106	0x3b99bdc1	0.00469181
107	0x3b0adc26	0.0021188348
108	0xbd714189	-0.05890039
109	0xbd0e49e2	-0.03473843
110	0x3c7ec5c9	0.015550085
111	0x3e035003	0.12823491
112	0xbd8e18b9	-0.06938309
113	0xbc22da1f	-0.009939699
114	0xbd25d65c	-0.040487632
115	0x3b9d3108	0.0047971047
116	0xbd77f21f	-0.06053364
117	0x3d1fa39d	0.038974393
118	0xbdcf02b6	-0.10107939
119	0x3d56f6d0	0.052481472
120	0x3d6b97a2	0.057517655
121	0xbd01bbd2	-0.03167326
122	0xbc1600dd	-0.009155479
123	0x3d199d7d	0.03750371
124	0x3d069c53	0.032863926
125	0xbd5e7512	-0.054310866
126	0xbdb2429e	-0.087041125
127	0x3d7ef31c	0.062243566
128	0xbe086550	-0.13319898
129	0x3d2c3480	0.042042255
130	0x3d241bc7	0.040065553
131	0xbdbd25df	-0.09235739
132	0x3c1c0265	0.009522055
133	0xbde6b00e	-0.112640485
134	0xbd305ac1	-0.0430553
135	0x3d2796c5	0.04091527
136	0xbcb5887c	-0.022159807
137	0x3c69da65	0.014273261
138	0xbdc120f6	-0.09430115
139	0x3d79eb8a	0.061015643
140	0xbc5099b6	-0.01273196
141	0xbe03e997	-0.12882076
142	0x3c867cef	0.016416995
143	0x3c125db8	0.008933477
144	0xbd2a8fe7	-0.041641142
145	0x3dd16c9e	0.10225795
146	0xbc07c962	-0.0082877595
147	0xbcb65a01	-0.022259714
148	0x3d854d03	0.065088294
149	0xbd453dca	-0.04815463
150	0xbd89f707	-0.0673657
151	0x3bef053c	0.007294325
152	0x3cf8265e	0.030291732
153	0x3d38521a	0.045000173
154	0xbd6b7915	-0.05748852
155	0x3cc4ac79	0.024008023
156	0xbd52c961	-0.05146158
157	0x3d09dc92	0.033657618
158	0x3cf66ad2	0.030080233
159	0xbd27fffb	-0.041015606
160	0xbd333d3f	-0.04375958
161	0xbd33daef	-0.043909963
162	0x3d02c606	0.03192713
163	0xbcb37478	-0.021906123
164	0x3d213c42	0.039364107
165	0xbdc5787c	-0.09642121
166	0x3c5cb547	0.013470954
167	0xbd871b33	-0.06596985
168	0xbd99fbfe	-0.07518767
169	0x3d8f26e0	0.06989837
170	0x3c6056ee	0.013692601
171	0x3d527b84	0.051387325
172	0x3d85d0f9	0.06533999
173	0x3c79b69f	0.015241294
174	0xbcfeecbd	-0.031118745
175	0x3ba203dc	0.0049443077
176	0x3c59bbaa	0.0132893715
177	0x3dc0f992	0.09422602
178	0x3d8df878	0.06932157
179	0xbd903d47	-0.07042938
180	0x3d764d2a	0.060132183
181	0x3c3c7fab	0.011505048
182	0x3d918774	0.07105914
183	0xbc3089b0	-0.010775015
184	0x3d5c9428	0.05385223
185	0xbd509832	-0.050926395
186	0xbdb7ebbf	-0.08980512
187	0x3d553015	0.052047808
188	0x3da2d0cb	0.0794998
189	0x3b81197c	0.0039398056
190	0x3d41b527	0.0472919
191	0xbd89bee6	-0.06725864
192	0xbd977e20	-0.07397103
193	0xbda5c569	-0.080942936
194	0x3cfbe542	0.030748967
195	0x3d1e547c	0.03865479
196	0x3daf52e7	0.08560734
197	0xbd4ace70	-0.04951328
198	0x3d457efb	0.0482168
199	0x3d7d29b6	0.061807357
200	0xbd1c0980	-0.038094997
201	0xbccb1a43	-0.024792796
202	0xbcb5c9dc	-0.02219098
203	0xbcecda5c	-0.028912716
204	0x3d5fd373	0.054645013
205	0xbdc1e85c	-0.09468147
206	0x3c5a8736	0.013337901
207	0x3d373dd3	0.044736695
208	0xbcd1ee16	-0.025626224
209	0x3e02c762	0.12771371
210	0xbd4a9222	-0.04945577
211	0xbd93b6d7	-0.07212608
212	0xbd003708	-0.031302482
213	0x3c41abf8	0.011820786
214	0xbd7c7154	-0.061631516
215	0x3d4f579d	0.050620664
216	0x3c5b9784	0.013402823
217	0xbd123bc7	-0.03570154
218	0x3cd13cea	0.025541741
219	0xbd844282	-0.06457998
220	0xbc330b2d	-0.0109279575
221	0xbc950b5a	-0.01819389
222	0xbc5fa11a	-0.013649249
223	0xbdb51d5e	-0.08843492
224	0xbd319368	-0.04335347
225	0x3d2c37ae	0.042045288
226	0x3d51e7a2	0.051246293
227	0xbd3c90e1	-0.046036605
228	0xbcabc19a	-0.02096634
229	0xbe159edf	-0.14611386
230	0xbd74420e	-0.059633307
231	0xbd407746	-0.046988748
232	0xbd4bfe03	-0.04980279
233	0x3c3fd37b	0.011708136
234	0xbc1c78cc	-0.009550285
235	0xbd8dcaa3	-0.069234155
236	0x3c1cd951	0.009573297
237	0xbdb127e3	-0.08650186
238	0x3d353ead	0.044249225
239	0x3dea0a8a	0.114277914
240	0x3c56984d	0.013097835
241	0x3d88bcb1	0.06676615
242	0x3d766eb8	0.060164183
243	0x3d4d430d	0.050112773
244	0xbd198aef	-0.037486013
245	0x3d2f5457	0.042805042
246	0x3c6a1d63	0.014289233
247	0x3ce8d020	0.028419554
248	0x3d7ab5db	0.061208587
249	0x3cda7864	0.026668735
250	0xbd9e3cf9	-0.07726473
251	0x3cdc52f3	0.026895022
252	0x3d8b0dd0	0.06789744
253	0xbd604a79	-0.054758523
254	0xbc38d94e	-0.011282278
255	0xbda170ef	-0.078828685

sequential_2/conv2d_2/Conv2D f4 [64, 3, 3, 64]
0	0xbd74c60d	-0.05975919
1	0xbd38aa17	-0.045084085
2	0x3be9de69	0.007137109
3	0x3c95337c	0.018213026
4	0xbcb6d0d6	-0.022316378
5	0x3d84ec74	0.06490412
6	0x3c919700	0.017772198
7	0xbd6dcab8	-0.058054656
8	0xbd2562fc	-0.040377602
9	0x3ce1a036	0.027542215
10	0xbd91aa73	-0.07112589
11	0xbc1d8f04	-0.009616617
12	0xbd0a3575	-0.033742387
13	0xbdb26eaf	-0.087125175
14	0xbcf229e1	-0.029560985
15	0x3cc32930	0.02382335
16	0xbd48d628	-0.04903236
17	0x3d16c3a8	0.036807686
18	0xbd915c55	-0.07097689
19	0x3d0a7010	0.033798277
20	0xbc6f4509	-0.014603862
21	0xbd001fa9	-0.031280193
22	0xbc047e28	-0.008086719
23	0xbd576eb4	-0.05259581
24	0x3d5f5206	0.054521583
25	0x3cfea73e	0.031085607
26	0x3d1772a8	0.03697458
27	0xbcc9ecc1	-0.024649026
28	0x3bb9164e	0.005648411
29	0x3d0f9fc1	0.035064463
30	0xbd074f2e	-0.033034496
31	0x3b86006d	0.004089406
32	0xbd72cc3f	-0.059276816
33	0x3d8fd895	0.070237316
34	0x3d0b11b9	0.03395245
35	0x3d74b1d8	0.059739918
36	0x3d81eafa	0.06343646
37	0x3a0efecc	0.0005454838
38	0xbc890969	-0.01672812
39	0x3d86edd0	0.06588328
40	0xbd45b925	-0.04827227
41	0xbd9651e6	-0.0733984
42	0xbd63abde	-0.055583827
43	0x3d88f190	0.066866994
44	0xbc126a1e	-0.008936433
45	0x3cc9839d	0.02459889
46	0xbcad0f7c	-0.021125548
47	0xbd7ff7e2	-0.06249226
48	0xbd1b7ab7	-0.037958827
49	0xbd80de76	-0.06292431
50	0xbd72e7a9	-0.05930296
51	0xbd1f4c53	-0.038891148
52	0xbd12e2a5	-0.035860676
53	0x3d266d6b	0.040631693
54	0x3c19c782	0.009385945
55	0xbcac1400	-0.02100563
56	0x3cab938b	0.020944377
57	0x3c41aa01	0.011820317
58	0x3d16c56d	0.036809374
59	0x3ce8c4cd	0.028414154
60	0xbd044bd9	-0.032298896
61	0xbc4869f4	-0.012232292
62	0x3cdbfdc5	0.026854405
63	0xbd400645	-0.04688098
64	0xbcefca52	-0.029271279
65	0x3d457cae	0.048214607
66	0x3c0c3a52	0.0085588265
67	0x3d01fd1c	0.031735525
68	0x3ccbfe48	0.024901524
69	0xbc4bb369	-0.012432911
70	0xbc7f2c2c	-0.015574496
71	0xbd0ca04f	-0.03433257
72	0xbd7d7c05	-0.061885852
73	0x3ca349b1	0.0199326
74	0xbbede772	-0.0072602564
75	0x3d5ede12	0.054411
76	0xbc02cafb	-0.007982965
77	0xbda26d6e	-0.07931028
78	0xbbaadca2	-0.0052142898
79	0xbcce5696	-0.025187772
80	0xbd810e5e	-0.063015684
81	0xbd187ee0	-0.037230372
82	0xbd73277b	-0.059363823
83	0x3cd4f191	0.025994094
84	0x3d3bc3fc	0.045841202
85	0x3ad4ff28	0.0016250359
86	0x3d81f57f	0.06345653
87	0x3d69b809	0.057060275
88	0x3ce0ed30	0.02745685
89	0x3c898b4d	0.016790057
90	0x3d264824	0.040596142
91	0xbd2330fd	-0.03984164
92	0xbc94ba46	-0.018155228
93	0xbceb1d10	-0.028700382
94	0x3ba93231	0.005163454
95	0xbcbd56d1	-0.023112686
96	0x3d46fba3	0.048579823
97	0xbce036bf	-0.027369855
98	0xbd0c7637	-0.034292426
99	0xbd77b286	-0.060472988
100	0xbbc2e98f	-0.0059482525
101	0x3cbb98a1	0.022899928
102	0xbd497567	-0.04918423
103	0xbd66829f	-0.056276914
104	0xbc4f8b54	-0.012667496
105	0x3ce68247	0.028138293
106	0x3cd2813f	0.025696395
107	0x3c14c5bb	0.009080346
108	0x3d03a12c	0.032136127
109	0x3d1842bf	0.03717303
110	0xbc4b74a4	-0.012417946
111	0x3d4acd7a	0.049512364
112	0x3d7068d0	0.058693707
113	0x3cdf7c45	0.027280936
114	0x3d15d5f2	0.036580987
115	0xbcb8fd9f	-0.022581873
116	0x3c1b48c4	0.009477798
117	0x3ce2d676	0.027690154
118	0xbd2245c7	-0.039617326
119	0xbd8272e9	-0.063695736
120	0xbd630485	-0.055424232
121	0x3d976fbe	0.0739436
122	0x3d683367	0.056689646
123	0xbd0ad547	-0.033894803
124	0xbd680255	-0.05664285
125	0x3d2697b4	0.04067202
126	0xbd81b59d	-0.06333468
127	0xbca5d3dd	-0.020242626
128	0xbd738283	-0.059450638
129	0xbd77f947	-0.060540464
130	0x3cbbb157	0.02291171
131	0x3c11e990	0.008905783
132	0xbd23f9c1	-0.040033106
133	0xbc68cef4	-0.014209498
134	0x3b0d4438	0.0021555554
135	0xbda4c3bc	-0.08045146
136	0x3d587842	0.05284906
137	0x3d5141b5	0.051088054
138	0xbba6dc48	-0.0050921775
139	0x3c1c6ec7	0.009547896
140	0xbd729593	-0.059224676
141	0xba9660fd	-0.0011472997
142	0x3d4e2212	0.05032546
143	0xbd25a040	-0.04043603
144	0xbdb23491	-0.087014325
145	0x3d3d5d89	0.04623178
146	0x3d02da87	0.031946685
147	0xbc8c5f14	-0.01713518
148	0x3d1890cb	0.03724746
149	0x3d6484db	0.055790763
150	0xbd53a68d	-0.051672507
151	0xbc1869e8	-0.009302594
152	0x3ccec427	0.025240017
153	0x3d1aaf05	0.037764568
154	0x3d07d037	0.033157554
155	0xbc9f2b93	-0.019429957
156	0x3d76922a	0.060197987
157	0x3c24e22d	0.01006369
158	0x3d4ea7a1	0.050452832
159	0xbcb523fa	-0.022111882
160	0xbd8434f7	-0.06455415
161	0x3d05bc51	0.032650296
162	0xbd5b2a4b	-0.05350713
163	0x3b257f98	0.0025253054
164	0x3d1c9652	0.038229294
165	0x3d4f2f84	0.050582424
166	0x3d64e306	0.05588057
167	0xbd2ea8a7	-0.04264131
168	0xbc684648	-0.014176913
169	0x3c16c06d	0.009201151
170	0xbd6096e8	-0.054831415
171	0xbc787fc3	-0.0151671795
172	0xbc46d012	-0.012134569
173	0xbd2360d7	-0.039887276
174	0x3cbbc8ea	0.022922952
175	0xbc373af0	-0.011183485
176	0x3d605314	0.05476673
177	0xbd2afa94	-0.041742876
178	0x3d76add8	0.060224384
179	0xbd7d0395	-0.061770994
180	0x3ccf367b	0.025294533
181	0xbacb0692	-0.0015489629
182	0xbd0b9a3b	-0.034082633
183	0x3d463a81	0.048395637
184	0xbd51c9d3	-0.051217865
185	0x3d1d53e1	0.03841007
186	0x3d188828	0.037239224
187	0xbbeae30e	-0.0071681803
188	0xbd9f85d5	-0.07789198
189	0xbcaed72c	-0.021342836
190	0xbd2ba8fb	-0.0419092
191	0xbca8d7bb	-0.02061068
192	0x3d8f69c2	0.070025936
193	0xb991e1b1	-0.00027824708
194	0xbd1dcb77	-0.038524117
195	0xbace7dcf	-0.0015754047
196	0x3c32daa4	0.010916386
197	0xbd367379	-0.044543717
198	0xbb1a71f7	-0.0023566463
199	0x3cf7baa4	0.030240364
200	0xbd179636	-0.037008487
201	0x3d6253f6	0.055255853
202	0x3d45bc9b	0.04827557
203	0x3d0687a2	0.032844193
204	0x3c87cd17	0.016577287
205	0x3d14e9f4	0.036355928
206	0xbd574904	-0.052559868
207	0x3d0b6385	0.034030456
208	0xbdae8cb4	-0.08522931
209	0x3d890773	0.06690874
210	0x3c857584	0.016291387
211	0x3ca31ed5	0.019912163
212	0xbb049b1a	-0.002023405
213	0xbd6b849d	-0.057499517
214	0x3cda5f5f	0.026656805
215	0x3d67164d	0.056417752
216	0xba2d9d3c	-0.0006622856
217	0xbc552298	-0.013008736
218	0xbbea93e2	-0.0071587423
219	0xbbb17aa8	-0.005416233
220	0xbd107b3a	-0.035273768
221	0x3c909f2d	0.017654026
222	0xbd26fc22	-0.040767796
223	0xbd957a0c	-0.07298669
224	0xbd04fc39	-0.0324671
225	0x3d89a732	0.06721343
226	0xbda1d3f9	-0.07901759
227	0x3cdd6810	0.02702716
228	0xbd54873d	-0.051886786
229	0xbd9dcc4c	-0.07704982
230	0x3cada950	0.021198899
231	0xbceb862b	-0.0287505
232	0x3d474001	0.048645023
233	0xbcccd2ed	-0.025002921
234	0xbccb14a9	-0.024790125
235	0xbcb66f18	-0.02226977
236	0xbdada746	-0.084791705
237	0xbcd24396	-0.025666993
238	0x3cb59d40	0.02216971
239	0x395faa2e	0.00021330334
240	0x3d7b1bc5	0.06130578
241	0x3d891c34	0.066948324
242	0xbd3d5c9b	-0.046230894
243	0xbd61021e	-0.05493366
244	0xbc67d3da	-0.01414963
245	0xbd38a026	-0.045074604
246	0xbd36b074	-0.044601873
247	0x3be62065	0.0070229047
248	0xbb059fdd	-0.0020389475
249	0x3d0d0589	0.034429107
250	0x3d344eac	0.04402034
251	0xbd3ab201	-0.045579914
252	0xbc5d4fe1	-0.013507814
253	0x3c51de01	0.0128092775
254	0xbcfe286f	-0.03102514
255	0xbd31857b	-0.043340188

sequential_2/conv2d_3/Conv2D f4 [64, 3, 3, 64]
0	0xbc8ffb34	-0.017575838
1	0x3cc6326f	0.02419397
2	0xbd88e38c	-0.06684026
3	0xbd34937c	-0.044085965
4	0x3d137ba0	0.03600657
5	0x3cbb7354	0.022882141
6	0xbafeae69	-0.001943064
7	0xbcca1415	-0.024667779
8	0x3d398bd8	0.04529938
9	0x3d8ef010	0.06979382
10	0xbc99c404	-0.018770225
11	0x3d9d581f	0.076828234
12	0x3cebe4c5	0.02879561
13	0xbd09140e	-0.03346639
14	0xbc8149f8	-0.015782341
15	0xbca147bc	-0.019687526
16	0xbd473aad	-0.048639942
17	0x3d803e6c	0.06261906
18	0x3909eab7	0.00013152776
19	0x3d55ab64	0.052165404
20	0x3d26c59b	0.040715795
21	0xbd48458f	-0.04889446
22	0xbd101c8a	-0.035183467
23	0xbd1d45ef	-0.038396772
24	0xbd831804	-0.06401065
25	0xbcf41555	-0.029795328
26	0xbd9a948a	-0.07547863
27	0x3d8941f6	0.06702034
28	0x3d009bb4	0.03139849
29	0xbd87c6b9	-0.066297
30	0xbd716a2c	-0.058939144
31	0xbcf32ca7	-0.029684378
32	0x3cddb0de	0.027061876
33	0xbc9d7da0	-0.019224942
34	0x3b482502	0.0030539637
35	0xbd623760	-0.05522859
36	0x3d43bc68	0.0477871
37	0xbd209002	-0.039199837
38	0x3d307bb0	0.043086708
39	0xbd1f3512	-0.03886897
40	0x3d9007d7	0.07032745
41	0x3ce0c6bc	0.027438514
42	0xbd547e3e	-0.051878206
43	0xbd2c72d5	-0.0421017
44	0xbd805b1d	-0.062673785
45	0xbce931e4	-0.028466173
46	0xbd883e57	-0.066525154
47	0x3d892873	0.06697168
48	0xbd918029	-0.07104523
49	0x3d06c01d	0.032898057
50	0x3d8c7a9d	0.06859324
51	0xbd74979e	-0.059714906
52	0xbd4c1481	-0.04982424
53	0x3d1b2177	0.03787371
54	0xbc82e080	-0.01597619
55	0xbd142542	-0.036168344
56	0x3d6e73c9	0.05821589
57	0xbd400d1b	-0.0468875
58	0xbd5a5a00	-0.053308487
59	0xbd0ad7c1	-0.033897165
60	0xbbc86040	-0.0061149895
61	0x3d3a047b	0.04541443
62	0xbc353f18	-0.011062406
63	0x3b964ad2	0.004586556
64	0xbd303893	-0.043022703
65	0x3d369d91	0.04458386
66	0xbcc2cfa4	-0.023780651
67	0x3ae06f34	0.0017122985
68	0x3d79a8f7	0.060952153
69	0x3ca50b31	0.020146938
70	0xbce1c599	-0.027560042
71	0x3d9259b9	0.071460195
72	0xbd909071	-0.070588
73	0x3cd71923	0.026257103
74	0xbd716731	-0.0589363
75	0x3d1a43f5	0.037662465
76	0x3d679cff	0.056546208
77	0x3c65d47c	0.014027711
78	0x3b1fdf7b	0.002439468
79	0x3bc306d6	0.0059517426
80	0xbc825240	-0.01590836
81	0x3b411abb	0.0029465395
82	0x3d08fd95	0.03344496
83	0x3d46ab42	0.048503168
84	0xbd86640a	-0.0656205
85	0x3d4938dd	0.049126495
86	0xbc8317f8	-0.01600264
87	0x3d3119a3	0.04323734
88	0xbd513cd3	-0.051083397
89	0xbcd06a6f	-0.025441376
90	0xbc4ab313	-0.012371796
91	0x3d8580af	0.06518685
92	0x3d7df34e	0.06199961
93	0x3d2fcdb5	0.042920787
94	0xbd8ba033	-0.06817665
95	0xbda1b2e6	-0.0789545
96	0x3d6e9583	0.058248054
97	0x3c54fd37	0.012999824
98	0x3d8aeaa4	0.067830354
99	0x3c75108b	0.014957557
100	0x3d97102d	0.07376132
101	0x3c4739b0	0.01215975
102	0x3d0d12c7	0.034441736
103	0xb95ea086	-0.0002123137
104	0xbd325a3d	-0.04354309
105	0xbcd0bb1a	-0.025479842
106	0x3d437d4e	0.04772692
107	0x3c514499	0.012772703
108	0xbb9e7285	-0.004835429
109	0x3cc48431	0.023988815
110	0x3d069ab1	0.03286237
111	0xbd3541c0	-0.044252157
112	0x3c281bf4	0.010260571
113	0xbd718f3b	-0.058974486
114	0x3d17a93c	0.03702663
115	0xbc901f17	-0.01759295
116	0x3d847b63	0.06468847
117	0xbc084b57	-0.008318744
118	0x3d77747d	0.060413826
119	0xbbb0b2bb	-0.0053924
120	0xbd43afeb	-0.04777519
121	0xbc6c5888	-0.014425404
122	0xbd524b94	-0.05134161
123	0xbc619923	-0.013769421
124	0xbd5ac2f5	-0.05340858
125	0xbd1ece7c	-0.038771138
126	0xbd8c6754	-0.06855646
127	0xbd4d8bee	-0.050182275
128	0x3cd9fb48	0.026609078
129	0xbc7d13b7	-0.015446595
130	0x3cea9f0b	0.02864029
131	0xbd5dcd0e	-0.054150634
132	0x3d4dcd45	0.05024459
133	0xbb6c8de1	-0.0036095309
134	0x3b212a61	0.002459191
135	0x3c3e9cea	0.011634091
136	0x3d4cd0ea	0.050003923
137	0x3d2349bd	0.039865244
138	0x3d0b3768	0.033988386
139	0xbb3fed09	-0.002928557
140	0x3d4355c5	0.047689218
141	0x3d053473	0.032520723
142	0x39f9a1dc	0.00047613576
143	0xbd3cf83f	-0.046135183
144	0x3c8a4d70	0.016882628
145	0x3c3df81d	0.011594799
146	0x3cd89c3b	0.026441684
147	0x3d49dedb	0.049284797
148	0x3d2636e8	0.040579706
149	0x3be1f3b5	0.006895507
150	0xbd293912	-0.041314192
151	0x3ccb65f0	0.024828881
152	0x3d03de61	0.0321945
153	0x3d0bc9d6	0.034128033
154	0xbd34d7ed	-0.044151235
155	0x3cfdcbdb	0.030980995
156	0xbd87f37a	-0.06638236
157	0xbc5ed915	-0.013601561
158	0x3cac9c30	0.02107057
159	0x3ccf25b0	0.025286525
160	0xbd759633	-0.059957694
161	0x3d53074d	0.051520634
162	0x3d31b852	0.043388672
163	0xbd111306	-0.035418533
164	0xbcddceb6	-0.027076107
165	0x3b8a170e	0.004214174
166	0xbcc62eb4	-0.024192192
167	0x3c6ce4ed	0.014458877
168	0x3d6120e1	0.054962996
169	0x3d30bd63	0.043149363
170	0x3db3d816	0.087814495
171	0xbb9ba4fe	-0.004749893
172	0xbd97a47f	-0.07404422
173	0x3cd2e03b	0.025741687
174	0x3d198f55	0.037490208
175	0xbd60cb96	-0.054881655
176	0xbd7b97d8	-0.061424106
177	0x3d8d1309	0.06888396
178	0xbb5fb322	-0.003413387
179	0x3d2773bb	0.040881854
180	0x3cd543b8	0.026033267
181	0xbd15d261	-0.036577586
182	0x3d1c9005	0.038223285
183	0x3c98e229	0.018662529
184	0xbda1dad2	-0.07903065
185	0xbb0aea13	-0.0021196648
186	0x3d0f4409	0.034976993
187	0x3d73b5b1	0.059499446
188	0xbca66408	-0.02031137
189	0xbd257834	-0.040397838
190	0x3d087abc	0.033320174
191	0x3d56ca46	0.052438997
192	0x3c69d213	0.014271277
193	0xbc8b87dc	-0.017032556
194	0x3d55dc00	0.05221176
195	0x3d118c07	0.03553393
196	0x3d8ea7eb	0.069656216
197	0xbc47de4a	-0.012198994
198	0x3d019c3b	0.031643134
199	0x3d9f2575	0.07770816
200	0x3c397874	0.011320222
201	0xbd4aff6b	-0.04955999
202	0x3d86fa62	0.065907255
203	0xbb4c27b7	-0.0031151602
204	0x3a2dc7b6	0.00066291855
205	0xbc2df5a4	-0.010617647
206	0xbd6fe40d	-0.058567096
207	0x3d0ac20d	0.033876467
208	0xbbb564b8	-0.0055356883
209	0xbaf76157	-0.0018873614
210	0xbd253d39	-0.04034159
211	0x3d090f25	0.03346171
212	0xbd50e4ed	-0.05099957
213	0x3c42e82d	0.011896175
214	0x3d099380	0.033587933
215	0xbd157593	-0.03648908
216	0xbc32f7ae	-0.010923309
217	0xbdac7237	-0.08420222
218	0xbbb9bbe4	-0.0056681503
219	0xbd5ca643	-0.053869497
220	0x3c9c42b0	0.019074768
221	0x3bbb2709	0.0057114405
222	0xbd675ccf	-0.056484994
223	0xbd93c8dd	-0.07216046
224	0xbd380f23	-0.04493631
225	0x3d61cc45	0.055126447
226	0xbd37dcd4	-0.044888332
227	0xbcd405cc	-0.02588167
228	0x3b9e70eb	0.004835238
229	0xbcd8ee68	-0.026480868
230	0xbc2dabc8	-0.010600038
231	0xbb81cff5	-0.003961558
232	0x3d17f08f	0.03709465
233	0x3b2a8c27	0.0026023479
234	0xbcdf3ff3	-0.027252173
235	0x3dbb0302	0.09131433
236	0xbd577e01	-0.0526104
237	0x3d8ae6a5	0.06782273
238	0xbd0316ee	-0.03200429
239	0xbcf416d7	-0.029796047
240	0xbd920892	-0.07130541
241	0x3bb9d9a6	0.0056716977
242	0xbd8069aa	-0.06270154
243	0x3d955aa4	0.07292679
244	0xbd0cd5f3	-0.034383725
245	0x3d8bde7d	0.06829546
246	0x3d3e51ac	0.046464607
247	0x3c68d2ab	0.014210383
248	0xbd95346e	-0.07285391
249	0x3d8dafa1	0.06918264
250	0xbd07655a	-0.03305564
251	0x3d273d7b	0.040830117
252	0x3d1971ed	0.037462164
253	0x3bdc750b	0.00672782
254	0xbd25e02c	-0.04049699
255	0x3cb43de1	0.022002162

sequential_2/conv2d_4/Conv2D f4 [64, 3, 3, 64]
0	0xba5a263d	-0.0008321738
1	0x3d5de8d2	0.054177113
2	0x3d329a0d	0.043603946
3	0x3d761163	0.060075175
4	0xbaf03948	-0.0018327618
5	0xbc818ce1	-0.015814247
6	0x3d1cce4b	0.038282674
7	0x3d8d411a	0.06897183
8	0xbd107c39	-0.035274718
9	0x3d218d42	0.039441355
10	0xbd96470a	-0.073377684
11	0xbda722cf	-0.08160936
12	0x3c109062	0.008823486
13	0x3d5c9dee	0.05386155
14	0xbd0a04f8	-0.033696145
15	0xbd167db5	-0.036740977
16	0xbcb2fbab	-0.02184852
17	0x3d5e482d	0.05426805
18	0x3ca384db	0.019960811
19	0xbcc0e199	-0.023545073
20	0x3d51242f	0.051059898
21	0x3d470a58	0.04859385
22	0x3d0a91da	0.0338305
23	0xbd7a2255	-0.061067898
24	0xbc282ad3	-0.010264116
25	0x3d222f7e	0.039596073
26	0xbca8d9bf	-0.020611642
27	0xbd8f4a47	-0.06996589
28	0x3d042478	0.03226134
29	0xbcbf3145	-0.023338923
30	0x3cb0bda5	0.021574805
31	0x3d73e36b	0.059543055
32	0x3cae3337	0.021264656
33	0xbd8e9dec	-0.06963715
34	0xbcbc6ed3	-0.023002064
35	0x3c0b7147	0.008510894
36	0x3d726844	0.059181467
37	0x3d4173c2	0.047229536
38	0x3b9e6c42	0.0048346827
39	0xbc09febd	-0.008422551
40	0xbd232804	-0.039833084
41	0x3d0f8a8f	0.03504425
42	0xbd02de6c	-0.0319504
43	0xbc768067	-0.015045262
44	0xbc900be6	-0.017583799
45	0xbd1a57af	-0.037681278
46	0xbc613ffc	-0.013748165
47	0x3b8092c0	0.003923744
48	0x3cd0751e	0.02544647
49	0x3d36cb0d	0.044627238
50	0x3d0a5d1f	0.033780213
51	0xbd1e752b	-0.03868596
52	0xbd899f8d	-0.06719885
53	0x3da040eb	0.07824882
54	0x3cf4b555	0.029871622
55	0xbd88d0b7	-0.06680434
56	0x3c906281	0.017625095
57	0xbbefa966	-0.007313895
58	0xbd059d61	-0.03262079
59	0xbd89112d	-0.06692729
60	0x3c936937	0.017994506
61	0xbc97ba4a	-0.018521447
62	0x3ca2568d	0.019816661
63	0xbd22d3ab	-0.039752644
64	0xbd864338	-0.0655579
65	0xbd7d3ddc	-0.06182657
66	0xbd4236b3	-0.047415446
67	0xbc8a13ef	-0.016855208
68	0xbcf1a591	-0.029497894
69	0xbdabb282	-0.08383657
70	0xbccaaa0e	-0.024739292
71	0x3cb9e11c	0.022690348
72	0x3d117d6c	0.035520002
73	0xbd6cb7cb	-0.057792466
74	0xbc14fd0e	-0.009093536
75	0xbcb50185	-0.022095451
76	0x3d3a9f84	0.045562282
77	0xbd81f356	-0.06345241
78	0x3bd62f26	0.0065363823
79	0x3d6db359	0.058032367
80	0x3d5f160d	0.05446439
81	0xbd310390	-0.043216288
82	0x3ccee728	0.025256708
83	0x3d462db6	0.048383437
84	0xbd07dacd	-0.03316765
85	0x3d548452	0.051884003
86	0x3d057e09	0.0325909
87	0x3d75c37f	0.060000893
88	0x3ce73e90	0.028228074
89	0x3c4d9688	0.0125480965
90	0x3cb01c88	0.02149798
91	0x3daf2b7b	0.08553215
92	0x3d696933	0.05698509
93	0xbd83c4dd	-0.06434033
94	0x3d64d692	0.055868693
95	0x3d87a4fa	0.06623264
96	0x3d4fe4cb	0.050755303
97	0x3b0cc1ae	0.0021477747
98	0x3d5ec0d4	0.054383114
99	0x3ccf9f97	0.025344653
100	0x3c949662	0.018138114
101	0x3c6517af	0.013982697
102	0x3b8e95c1	0.004351348
103	0x3d7f1e5a	0.062284805
104	0xbd1c408a	-0.038147487
105	0xbbc728ca	-0.0060778605
106	0xbc3fa67f	-0.011697411
107	0xbd2c4d8e	-0.04206615
108	0xbd904a29	-0.07045395
109	0xbcf9a7d4	-0.030475534
110	0xbd7c107a	-0.06153915
111	0xbb777093	-0.0037756308
112	0x3c9185c7	0.017763985
113	0x3d895ea0	0.067075014
114	0x3d484cef	0.048901495
115	0xba37fd8d	-0.0007018678
116	0xbd639137	-0.05555841
117	0x3d1ae7c5	0.03781869
118	0xbd6c714c	-0.057725236
119	0xbd4db5dd	-0.050222266
120	0xbcf33b48	-0.029691353
121	0xbba9ecd6	-0.0051857037
122	0x3abbe97b	0.001433655
123	0xbd12553e	-0.035725825
124	0xbb6ec682	-0.0036434238
125	0xbd532559	-0.05154929
126	0x3c1b8ced	0.009494049
127	0xbd4bae38	-0.049726695
128	0xbcfa1529	-0.030527668
129	0x3d719356	0.0589784
130	0xbd56d082	-0.052444942
131	0xbcbfbc94	-0.02340535
132	0x3d8f0c8b	0.06984814
133	0x3c83c782	0.016086344
134	0x3d8739b6	0.06602804
135	0x3bd5bd21	0.00652279
136	0x3b281306	0.0025646104
137	0xbcab24d0	-0.020891577
138	0x3b979448	0.004625831
139	0x3c449be5	0.012000059
140	0xbd5ee7dd	-0.05442034
141	0xbce2cb84	-0.027684934
142	0x3d67236d	0.05643027
143	0xbcea3e78	-0.02859424
144	0x3d173547	0.036916044
145	0x3cd75a08	0.026288047
146	0xbccb03bd	-0.024782056
147	0x3da20817	0.07911699
148	0xbd6d7815	-0.057975847
149	0x3d81d585	0.06339554
150	0xbcba004f	-0.022705225
151	0xbd9497cd	-0.07255516
152	0x3d542bc0	0.051799536
153	0xbcfb9d61	-0.030714693
154	0xbd43561f	-0.047689553
155	0x3b625371	0.0034534598
156	0x3cdd7c5c	0.027036838
157	0x3ce05434	0.027383901
158	0xba68cb59	-0.0008880399
159	0x3d306999	0.043069456
160	0xbd33d01e	-0.043899648
161	0x3c5fa1c7	0.013649411
162	0xbd53a9f7	-0.051675763
163	0xbc7651e5	-0.015034174
164	0x3cce1539	0.025156604
165	0x3d9a2ee3	0.07528474
166	0x3c214ee9	0.009845474
167	0xbd460d14	-0.048352316
168	0x3b3da15a	0.0028935284
169	0xbd4d7c79	-0.050167535
170	0xbda14dbf	-0.07876157
171	0xbd7fe464	-0.06247367
172	0xbcbf8074	-0.02337668
173	0xbc2b0269	-0.010437586
174	0x3c82e593	0.01597861
175	0x3d6ec3d9	0.058292244
176	0x3d0c4ab9	0.03425095
177	0x3c968af7	0.01837681
178	0x3cc6a76e	0.024249759
179	0x3d8f4afb	0.06996723
180	0xbd7c4632	-0.06159038
181	0xbd8e8259	-0.069584556
182	0x3c69b040	0.014263213
183	0xbd81eb09	-0.063436575
184	0x3babb276	0.00523978
185	0x3d70817e	0.058717243
186	0xbcc2e39f	-0.023790179
187	0xbd4237c4	-0.047416463
188	0xbc1c58e5	-0.0095426785
189	0x3d3cb7e8	0.046073824
190	0x3d4902ee	0.04907506
191	0xbd7856ae	-0.06062954
192	0xbd1cb667	-0.03825989
193	0x3ce6d33c	0.028176896
194	0xbcfaa195	-0.030594626
195	0x3a9092df	0.0011030099
196	0x3d35dfe2	0.044402964
197	0xbd65ceb6	-0.056105338
198	0xbc75c114	-0.014999647
199	0x3d4bfd7e	0.049802296
200	0xbcd021a8	-0.025406674
201	0x3d62c0c0	0.055359602
202	0xbd965fc0	-0.073424816
203	0xbce14a63	-0.02750129
204	0x3d7137a8	0.05889097
205	0x3b85fbe7	0.004088867
206	0x3d3e38e5	0.046440978
207	0xbd7725ef	-0.06033891
208	0xbd9181cb	-0.07104834
209	0x3d473880	0.048637867
210	0x3d69c409	0.05707172
211	0xbd8c2ff8	-0.06845087
212	0x3d7a583a	0.061119296
213	0xbcb0acd4	-0.021566786
214	0x3d7a3af6	0.061091386
215	0xbd0338c7	-0.03203657
216	0xbdaaad6e	-0.0833386
217	0xbd05d38b	-0.032672446
218	0xbcf0ddfd	-0.029402727
219	0x3d2c35d8	0.042043537
220	0x3d5394c0	0.05165553
221	0x3d6c2de7	0.057660963
222	0xbd8c2135	-0.06842271
223	0xbd9751b1	-0.07388628
224	0x3d5c8151	0.053834263
225	0xbd041317	-0.032244768
226	0xbd7db4ba	-0.061939932
227	0xbbca1fd6	-0.006168346
228	0xba9f13c9	-0.0012136634
229	0xbcaf66d5	-0.021411339
230	0xbd08cd32	-0.033398814
231	0xbd50a05f	-0.05093419
232	0xbda26b6a	-0.07930644
233	0x3bd1d2a5	0.0064032846
234	0x3d014854	0.031563118
235	0xbcb62b3f	-0.022237418
236	0xbd2f80f7	-0.0428476
237	0x3b0aff76	0.0021209395
238	0x3d651beb	0.055934828
239	0xbcc7f2d5	-0.024407784
240	0x3b74866d	0.003731157
241	0xbd8f63a5	-0.070014276
242	0x3d8b8d63	0.06814077
243	0x3b8f45e3	0.004372345
244	0xbc54559c	-0.012959864
245	0xbcec1968	-0.028820708
246	0x3ca126f4	0.019671895
247	0xbc730944	-0.014833752
248	0x3cb00dea	0.02149101
249	0xbd3d4148	-0.046204835
250	0xbd6f8e68	-0.05848542
251	0xbd02f64c	-0.03197317
252	0x3c989b6e	0.018628802
253	0x3d818dbf	0.06325864
254	0x3bbec4d2	0.0058218027
255	0x3d783e05	0.06060602
